…
  "seq_pooling_type": "value_attention",
  "seq_weight": null,
  "struct_alpha": 0.2,
  "struct_embed_size": 1280,
  "struct_fc_size": null,
  "struct_hidden_size": null,
  "struct_nb_heads": 4,
  "struct_output_size": null,
  "struct_vocab_size": null,
  "struct_weight": null,
  "token_dropout": true,
  "transformers_version": "4.29.0",
  "type_vocab_size": 2,
  "use_luca_layer_norm_v2": true,
  "vector_fc_size": 1024,
  "vocab_size": 19978,
  "weight": [
    … ##################################################
Mode Architecture:
 LucaProt(
  (seq_encoder): BertModel(
    (embeddings): BertEmbeddings(
      (word_embeddings): Embedding(19978, 2560, padding_idx=0)
      (LayerNorm): LayerNorm((2560,), eps=1e-12, elementwise_affine=True)
      (dropout): Dropout(p=0.1, inplace=False)
    )
    (encoder): BertEncoder(
      (layer): ModuleList(
        (0): BertLayer(
          (attention): BertAttention(
            (self): BertSelfAttention(
              (query): Linear(in_features=2560, out_features=2560, bias=True)
              (key): Linear(in_features=2560, out_features=2560, bias=True)
              (value): Linear(in_features=2560, out_features=2560, bias=True)
              (dropout): Dropout(p=0.1, inplace=False)
            )
            (output): BertSelfOutput(
              (dense): Linear(in_features=2560, out_features=2560, bias=True)
              (LayerNorm): LayerNorm((2560,), eps=1e-12, elementwise_affine=True)
              (dropout): Dropout(p=0.1, inplace=False)
            )
          )
          (intermediate): BertIntermediate(
            (dense): Linear(in_features=2560, out_features=5120, bias=True)
            (intermediate_act_fn): GELUActivation()
          )
          (output): BertOutput(
            (dense): Linear(in_features=5120, out_features=2560, bias=True)
            (LayerNorm): LayerNorm((2560,), eps=1e-12, elementwise_affine=True)
            (dropout): Dropout(p=0.1, inplace=False)
          )
        )
        (1): BertLayer(
          (attention): BertAttention(
            (self): BertSelfAttention(
              (query): Linear(in_features=2560, out_features=2560, bias=True)
              (key): Linear(in_features=2560, out_features=2560, bias=True)
              (value): Linear(in_features=2560, out_features=2560, bias=True)
              (dropout): Dropout(p=0.1, inplace=False)
            )
            (output): BertSelfOutput(
              (dense): Linear(in_features=2560, out_features=2560, bias=True)
              (LayerNorm): LayerNorm((2560,), eps=1e-12, elementwise_affine=True)
              (dropout): Dropout(p=0.1, inplace=False)
            )
          )
          (intermediate): BertIntermediate(
            (dense): Linear(in_features=2560, out_features=5120, bias=True)
            (intermediate_act_fn): GELUActivation()
          )
          (output): BertOutput(
            (dense): Linear(in_features=5120, out_features=2560, bias=True)
            (LayerNorm): LayerNorm((2560,), eps=1e-12, elementwise_affine=True)
            (dropout): Dropout(p=0.1, inplace=False)
          )
        )
        (2): BertLayer(
          (attention): BertAttention(
            (self): BertSelfAttention(
              (query): Linear(in_features=2560, out_features=2560, bias=True)
              (key): Linear(in_features=2560, out_features=2560, bias=True)
              (value): Linear(in_features=2560, out_features=2560, bias=True)
              (dropout): Dropout(p=0.1, inplace=False)
            )
            (output): BertSelfOutput(
              (dense): Linear(in_features=2560, out_features=2560, bias=True)
              (LayerNorm): LayerNorm((2560,), eps=1e-12, elementwise_affine=True)
              (dropout): Dropout(p=0.1, inplace=False)
            )
          )
          (intermediate): BertIntermediate(
            (dense): Linear(in_features=2560, out_features=5120, bias=True)
            (intermediate_act_fn): GELUActivation()
          )
          (output): BertOutput(
            (dense): Linear(in_features=5120, out_features=2560, bias=True)
            (LayerNorm): LayerNorm((2560,), eps=1e-12, elementwise_affine=True)
            (dropout): Dropout(p=0.1, inplace=False)
          )
        )
        (3): BertLayer(
          (attention): BertAttention(
            (self): BertSelfAttention(
              (query): Linear(in_features=2560, out_features=2560, bias=True)
              (key): Linear(in_features=2560, out_features=2560, bias=True)
              (value): Linear(in_features=2560, out_features=2560, bias=True)
              (dropout): Dropout(p=0.1, inplace=False)
            )
            (output): BertSelfOutput(
              (dense): Linear(in_features=2560, out_features=2560, bias=True)
              (LayerNorm): LayerNorm((2560,), eps=1e-12, elementwise_affine=True)
              (dropout): Dropout(p=0.1, inplace=False)
            )
          )
          (intermediate): BertIntermediate(
            (dense): Linear(in_features=2560, out_features=5120, bias=True)
            (intermediate_act_fn): GELUActivation()
          )
          (output): BertOutput(
            (dense): Linear(in_features=5120, out_features=2560, bias=True)
            (LayerNorm): LayerNorm((2560,), eps=1e-12, elementwise_affine=True)
            (dropout): Dropout(p=0.1, inplace=False)
          )
        )
      )
    )
    (pooler): BertPooler(
      (dense): Linear(in_features=2560, out_features=2560, bias=True)
      (activation): Tanh()
    )
  )
  (seq_pooler): GlobalMaskValueAttentionPooling1D (2560 -> 2560)
  (seq_linear): ModuleList(
    (0): Linear(in_features=2560, out_features=1280, bias=True)
    (1): Tanh()
  )
  (embedding_pooler): GlobalMaskValueAttentionPooling1D (2560 -> 2560)
  (embedding_linear): ModuleList(
    (0): Linear(in_features=2560, out_features=1280, bias=True)
    (1): Tanh()
  )
  (dropout): Dropout(p=0.1, inplace=False)
  (classifier): Linear(in_features=2560, out_features=31, bias=True)
  (output): Softmax(dim=-1)
  (loss_fct): CrossEntropyLoss()
)
##################################################
Model parameters: 313489951 
##################################################
{"total_num": "298.970000M", "total_size": "1195.870000MB", "param_sum": "298.970000M", "param_size": "1195.870000MB", "buffer_sum": "0.000000M", "buffer_size": "0.000000MB", "trainable_num": "298.970000M", "trainable_size": "1195.870000MB"}
…
